…
window_size:
- 8
- 8
- 16
- 8
ws: *id001
 
2023-02-06 19:57:48.976039: seed: 42 
2023-02-06 19:58:58.752057: This split has 900 training and 0 validation cases. 
2023-02-06 20:01:52.278341: Batch size: 16 
2023-02-06 20:01:52.315629: Patch size: [512, 512] 
2023-02-06 20:05:31.781445: Unable to plot network architecture: 
2023-02-06 20:05:31.806586: No module named 'hiddenlayer' 
2023-02-06 20:05:31.810016: 
printing the network instead:
 
2023-02-06 20:05:31.815536: unet2022(
  (model_down): encoder(
    (patch_embed): PatchEmbed(
      (project_block): ModuleList(
        (0): project(
          (conv1): Conv2d(3, 24, kernel_size=(3, 3), stride=(2, 2), padding=(1, 1))
          (conv2): Conv2d(24, 24, kernel_size=(3, 3), stride=(1, 1), padding=(1, 1))
          (activate): GELU(approximate='none')
          (norm1): LayerNorm((24,), eps=1e-05, elementwise_affine=True)
          (norm2): LayerNorm((24,), eps=1e-05, elementwise_affine=True)
        )
        (1): project(
          (conv1): Conv2d(24, 48, kernel_size=(3, 3), stride=(2, 2), padding=(1, 1))
          (conv2): Conv2d(48, 48, kernel_size=(3, 3), stride=(1, 1), padding=(1, 1))
          (activate): GELU(approximate='none')
          (norm1): LayerNorm((48,), eps=1e-05, elementwise_affine=True)
          (norm2): LayerNorm((48,), eps=1e-05, elementwise_affine=True)
        )
        (2): project(
          (conv1): Conv2d(48, 96, kernel_size=(3, 3), stride=(2, 2), padding=(1, 1))
          (conv2): Conv2d(96, 96, kernel_size=(3, 3), stride=(1, 1), padding=(1, 1))
          (activate): GELU(approximate='none')
          (norm1): LayerNorm((96,), eps=1e-05, elementwise_affine=True)
        )
      )
      (norm): LayerNorm((96,), eps=1e-05, elementwise_affine=True)
    )
    (pos_drop): Dropout(p=0.0, inplace=False)
    (layers): ModuleList(
      (0): BasicLayer(
        (blocks): ModuleList(
          (0): Block(
            (dwconv): Conv2d(96, 96, kernel_size=(7, 7), stride=(1, 1), padding=(3, 3), groups=96)
            (bn): BatchNorm2d(96, eps=1e-05, momentum=0.1, affine=True, track_running_stats=True)
            (norm): LayerNorm()
            (drop_path): Identity()
            (ffn_block): FFNBlock2(
              (conv1): Conv2d(96, 384, kernel_size=(1, 1), stride=(1, 1))
              (conv2): Conv2d(384, 96, kernel_size=(1, 1), stride=(1, 1))
              (dconv): Conv2d(384, 384, kernel_size=(3, 3), stride=(1, 1), padding=(1, 1), groups=384)
              (act): GELU(approximate='none')
            )
            (repmlp_block): RepBlock(
              (ca): ChannelAttention(
                (fc1): Conv2d(96, 12, kernel_size=(1, 1), stride=(1, 1))
                (fc2): Conv2d(12, 96, kernel_size=(1, 1), stride=(1, 1))
              )
              (dconv5_5): Conv2d(96, 96, kernel_size=(5, 5), stride=(1, 1), padding=(2, 2), groups=96)
              (dconv1_7): Conv2d(96, 96, kernel_size=(1, 7), stride=(1, 1), padding=(0, 3), groups=96)
              (dconv7_1): Conv2d(96, 96, kernel_size=(7, 1), stride=(1, 1), padding=(3, 0), groups=96)
              (dconv1_11): Conv2d(96, 96, kernel_size=(1, 11), stride=(1, 1), padding=(0, 5), groups=96)
              (dconv11_1): Conv2d(96, 96, kernel_size=(11, 1), stride=(1, 1), padding=(5, 0), groups=96)
              (dconv1_21): Conv2d(96, 96, kernel_size=(1, 21), stride=(1, 1), padding=(0, 10), groups=96)
              (dconv21_1): Conv2d(96, 96, kernel_size=(21, 1), stride=(1, 1), padding=(10, 0), groups=96)
              (conv): Conv2d(96, 96, kernel_size=(1, 1), stride=(1, 1))
              (act): GELU(approximate='none')
            )
          )
          (1): Block(
            (dwconv): Conv2d(96, 96, kernel_size=(7, 7), stride=(1, 1), padding=(3, 3), groups=96)
            (bn): BatchNorm2d(96, eps=1e-05, momentum=0.1, affine=True, track_running_stats=True)
            (norm): LayerNorm()
            (drop_path): DropPath(drop_prob=0.010)
            (ffn_block): FFNBlock2(
              (conv1): Conv2d(96, 384, kernel_size=(1, 1), stride=(1, 1))
              (conv2): Conv2d(384, 96, kernel_size=(1, 1), stride=(1, 1))
              (dconv): Conv2d(384, 384, kernel_size=(3, 3), stride=(1, 1), padding=(1, 1), groups=384)
              (act): GELU(approximate='none')
            )
            (repmlp_block): RepBlock(
              (ca): ChannelAttention(
                (fc1): Conv2d(96, 12, kernel_size=(1, 1), stride=(1, 1))
                (fc2): Conv2d(12, 96, kernel_size=(1, 1), stride=(1, 1))
              )
              (dconv5_5): Conv2d(96, 96, kernel_size=(5, 5), stride=(1, 1), padding=(2, 2), groups=96)
              (dconv1_7): Conv2d(96, 96, kernel_size=(1, 7), stride=(1, 1), padding=(0, 3), groups=96)
              (dconv7_1): Conv2d(96, 96, kernel_size=(7, 1), stride=(1, 1), padding=(3, 0), groups=96)
              (dconv1_11): Conv2d(96, 96, kernel_size=(1, 11), stride=(1, 1), padding=(0, 5), groups=96)
              (dconv11_1): Conv2d(96, 96, kernel_size=(11, 1), stride=(1, 1), padding=(5, 0), groups=96)
              (dconv1_21): Conv2d(96, 96, kernel_size=(1, 21), stride=(1, 1), padding=(0, 10), groups=96)
              (dconv21_1): Conv2d(96, 96, kernel_size=(21, 1), stride=(1, 1), padding=(10, 0), groups=96)
              (conv): Conv2d(96, 96, kernel_size=(1, 1), stride=(1, 1))
              (act): GELU(approximate='none')
            )
          )
          (2): Block(
            (dwconv): Conv2d(96, 96, kernel_size=(7, 7), stride=(1, 1), padding=(3, 3), groups=96)
            (bn): BatchNorm2d(96, eps=1e-05, momentum=0.1, affine=True, track_running_stats=True)
            (norm): LayerNorm()
            (drop_path): DropPath(drop_prob=0.020)
            (ffn_block): FFNBlock2(
              (conv1): Conv2d(96, 384, kernel_size=(1, 1), stride=(1, 1))
              (conv2): Conv2d(384, 96, kernel_size=(1, 1), stride=(1, 1))
              (dconv): Conv2d(384, 384, kernel_size=(3, 3), stride=(1, 1), padding=(1, 1), groups=384)
              (act): GELU(approximate='none')
            )
            (repmlp_block): RepBlock(
              (ca): ChannelAttention(
                (fc1): Conv2d(96, 12, kernel_size=(1, 1), stride=(1, 1))
                (fc2): Conv2d(12, 96, kernel_size=(1, 1), stride=(1, 1))
              )
              (dconv5_5): Conv2d(96, 96, kernel_size=(5, 5), stride=(1, 1), padding=(2, 2), groups=96)
              (dconv1_7): Conv2d(96, 96, kernel_size=(1, 7), stride=(1, 1), padding=(0, 3), groups=96)
              (dconv7_1): Conv2d(96, 96, kernel_size=(7, 1), stride=(1, 1), padding=(3, 0), groups=96)
              (dconv1_11): Conv2d(96, 96, kernel_size=(1, 11), stride=(1, 1), padding=(0, 5), groups=96)
              (dconv11_1): Conv2d(96, 96, kernel_size=(11, 1), stride=(1, 1), padding=(5, 0), groups=96)
              (dconv1_21): Conv2d(96, 96, kernel_size=(1, 21), stride=(1, 1), padding=(0, 10), groups=96)
              (dconv21_1): Conv2d(96, 96, kernel_size=(21, 1), stride=(1, 1), padding=(10, 0), groups=96)
              (conv): Conv2d(96, 96, kernel_size=(1, 1), stride=(1, 1))
              (act): GELU(approximate='none')
            )
          )
        )
        (downsample): PatchMerging(
          (reduction): Conv2d(96, 192, kernel_size=(3, 3), stride=(2, 2), padding=(1, 1))
          (norm): LayerNorm((96,), eps=1e-05, elementwise_affine=True)
        )
      )
      (1): BasicLayer(
        (blocks): ModuleList(
          (0): Block(
            (dwconv): Conv2d(192, 192, kernel_size=(7, 7), stride=(1, 1), padding=(3, 3), groups=192)
            (bn): BatchNorm2d(192, eps=1e-05, momentum=0.1, affine=True, track_running_stats=True)
            (norm): LayerNorm()
            (drop_path): DropPath(drop_prob=0.030)
            (ffn_block): FFNBlock2(
              (conv1): Conv2d(192, 768, kernel_size=(1, 1), stride=(1, 1))
              (conv2): Conv2d(768, 192, kernel_size=(1, 1), stride=(1, 1))
              (dconv): Conv2d(768, 768, kernel_size=(3, 3), stride=(1, 1), padding=(1, 1), groups=768)
              (act): GELU(approximate='none')
            )
            (repmlp_block): RepBlock(
              (ca): ChannelAttention(
                (fc1): Conv2d(192, 24, kernel_size=(1, 1), stride=(1, 1))
                (fc2): Conv2d(24, 192, kernel_size=(1, 1), stride=(1, 1))
              )
              (dconv5_5): Conv2d(192, 192, kernel_size=(5, 5), stride=(1, 1), padding=(2, 2), groups=192)
              (dconv1_7): Conv2d(192, 192, kernel_size=(1, 7), stride=(1, 1), padding=(0, 3), groups=192)
              (dconv7_1): Conv2d(192, 192, kernel_size=(7, 1), stride=(1, 1), padding=(3, 0), groups=192)
              (dconv1_11): Conv2d(192, 192, kernel_size=(1, 11), stride=(1, 1), padding=(0, 5), groups=192)
              (dconv11_1): Conv2d(192, 192, kernel_size=(11, 1), stride=(1, 1), padding=(5, 0), groups=192)
              (dconv1_21): Conv2d(192, 192, kernel_size=(1, 21), stride=(1, 1), padding=(0, 10), groups=192)
              (dconv21_1): Conv2d(192, 192, kernel_size=(21, 1), stride=(1, 1), padding=(10, 0), groups=192)
              (conv): Conv2d(192, 192, kernel_size=(1, 1), stride=(1, 1))
              (act): GELU(approximate='none')
            )
          )
          (1): Block(
            (dwconv): Conv2d(192, 192, kernel_size=(7, 7), stride=(1, 1), padding=(3, 3), groups=192)
            (bn): BatchNorm2d(192, eps=1e-05, momentum=0.1, affine=True, track_running_stats=True)
            (norm): LayerNorm()
            (drop_path): DropPath(drop_prob=0.040)
            (ffn_block): FFNBlock2(
              (conv1): Conv2d(192, 768, kernel_size=(1, 1), stride=(1, 1))
              (conv2): Conv2d(768, 192, kernel_size=(1, 1), stride=(1, 1))
              (dconv): Conv2d(768, 768, kernel_size=(3, 3), stride=(1, 1), padding=(1, 1), groups=768)
              (act): GELU(approximate='none')
            )
            (repmlp_block): RepBlock(
              (ca): ChannelAttention(
                (fc1): Conv2d(192, 24, kernel_size=(1, 1), stride=(1, 1))
                (fc2): Conv2d(24, 192, kernel_size=(1, 1), stride=(1, 1))
              )
              (dconv5_5): Conv2d(192, 192, kernel_size=(5, 5), stride=(1, 1), padding=(2, 2), groups=192)
              (dconv1_7): Conv2d(192, 192, kernel_size=(1, 7), stride=(1, 1), padding=(0, 3), groups=192)
              (dconv7_1): Conv2d(192, 192, kernel_size=(7, 1), stride=(1, 1), padding=(3, 0), groups=192)
              (dconv1_11): Conv2d(192, 192, kernel_size=(1, 11), stride=(1, 1), padding=(0, 5), groups=192)
              (dconv11_1): Conv2d(192, 192, kernel_size=(11, 1), stride=(1, 1), padding=(5, 0), groups=192)
              (dconv1_21): Conv2d(192, 192, kernel_size=(1, 21), stride=(1, 1), padding=(0, 10), groups=192)
              (dconv21_1): Conv2d(192, 192, kernel_size=(21, 1), stride=(1, 1), padding=(10, 0), groups=192)
              (conv): Conv2d(192, 192, kernel_size=(1, 1), stride=(1, 1))
              (act): GELU(approximate='none')
            )
          )
          (2): Block(
            (dwconv): Conv2d(192, 192, kernel_size=(7, 7), stride=(1, 1), padding=(3, 3), groups=192)
            (bn): BatchNorm2d(192, eps=1e-05, momentum=0.1, affine=True, track_running_stats=True)
            (norm): LayerNorm()
            (drop_path): DropPath(drop_prob=0.050)
            (ffn_block): FFNBlock2(
              (conv1): Conv2d(192, 768, kernel_size=(1, 1), stride=(1, 1))
              (conv2): Conv2d(768, 192, kernel_size=(1, 1), stride=(1, 1))
              (dconv): Conv2d(768, 768, kernel_size=(3, 3), stride=(1, 1), padding=(1, 1), groups=768)
              (act): GELU(approximate='none')
            )
            (repmlp_block): RepBlock(
              (ca): ChannelAttention(
                (fc1): Conv2d(192, 24, kernel_size=(1, 1), stride=(1, 1))
                (fc2): Conv2d(24, 192, kernel_size=(1, 1), stride=(1, 1))
              )
              (dconv5_5): Conv2d(192, 192, kernel_size=(5, 5), stride=(1, 1), padding=(2, 2), groups=192)
              (dconv1_7): Conv2d(192, 192, kernel_size=(1, 7), stride=(1, 1), padding=(0, 3), groups=192)
              (dconv7_1): Conv2d(192, 192, kernel_size=(7, 1), stride=(1, 1), padding=(3, 0), groups=192)
              (dconv1_11): Conv2d(192, 192, kernel_size=(1, 11), stride=(1, 1), padding=(0, 5), groups=192)
              (dconv11_1): Conv2d(192, 192, kernel_size=(11, 1), stride=(1, 1), padding=(5, 0), groups=192)
              (dconv1_21): Conv2d(192, 192, kernel_size=(1, 21), stride=(1, 1), padding=(0, 10), groups=192)
              (dconv21_1): Conv2d(192, 192, kernel_size=(21, 1), stride=(1, 1), padding=(10, 0), groups=192)
              (conv): Conv2d(192, 192, kernel_size=(1, 1), stride=(1, 1))
              (act): GELU(approximate='none')
            )
          )
        )
        (downsample): PatchMerging(
          (reduction): Conv2d(192, 384, kernel_size=(3, 3), stride=(2, 2), padding=(1, 1))
          (norm): LayerNorm((192,), eps=1e-05, elementwise_affine=True)
        )
      )
      (2): BasicLayer(
        (blocks): ModuleList(
          (0): Block(
            (dwconv): Conv2d(384, 384, kernel_size=(7, 7), stride=(1, 1), padding=(3, 3), groups=384)
            (bn): BatchNorm2d(384, eps=1e-05, momentum=0.1, affine=True, track_running_stats=True)
            (norm): LayerNorm()
            (drop_path): DropPath(drop_prob=0.060)
            (ffn_block): FFNBlock2(
              (conv1): Conv2d(384, 1536, kernel_size=(1, 1), stride=(1, 1))
              (conv2): Conv2d(1536, 384, kernel_size=(1, 1), stride=(1, 1))
              (dconv): Conv2d(1536, 1536, kernel_size=(3, 3), stride=(1, 1), padding=(1, 1), groups=1536)
              (act): GELU(approximate='none')
            )
            (repmlp_block): RepBlock(
              (ca): ChannelAttention(
                (fc1): Conv2d(384, 48, kernel_size=(1, 1), stride=(1, 1))
                (fc2): Conv2d(48, 384, kernel_size=(1, 1), stride=(1, 1))
              )
              (dconv5_5): Conv2d(384, 384, kernel_size=(5, 5), stride=(1, 1), padding=(2, 2), groups=384)
              (dconv1_7): Conv2d(384, 384, kernel_size=(1, 7), stride=(1, 1), padding=(0, 3), groups=384)
              (dconv7_1): Conv2d(384, 384, kernel_size=(7, 1), stride=(1, 1), padding=(3, 0), groups=384)
              (dconv1_11): Conv2d(384, 384, kernel_size=(1, 11), stride=(1, 1), padding=(0, 5), groups=384)
              (dconv11_1): Conv2d(384, 384, kernel_size=(11, 1), stride=(1, 1), padding=(5, 0), groups=384)
              (dconv1_21): Conv2d(384, 384, kernel_size=(1, 21), stride=(1, 1), padding=(0, 10), groups=384)
              (dconv21_1): Conv2d(384, 384, kernel_size=(21, 1), stride=(1, 1), padding=(10, 0), groups=384)
              (conv): Conv2d(384, 384, kernel_size=(1, 1), stride=(1, 1))
              (act): GELU(approximate='none')
            )
          )
          (1): Block(
            (dwconv): Conv2d(384, 384, kernel_size=(7, 7), stride=(1, 1), padding=(3, 3), groups=384)
            (bn): BatchNorm2d(384, eps=1e-05, momentum=0.1, affine=True, track_running_stats=True)
            (norm): LayerNorm()
            (drop_path): DropPath(drop_prob=0.070)
            (ffn_block): FFNBlock2(
              (conv1): Conv2d(384, 1536, kernel_size=(1, 1), stride=(1, 1))
              (conv2): Conv2d(1536, 384, kernel_size=(1, 1), stride=(1, 1))
              (dconv): Conv2d(1536, 1536, kernel_size=(3, 3), stride=(1, 1), padding=(1, 1), groups=1536)
              (act): GELU(approximate='none')
            )
            (repmlp_block): RepBlock(
              (ca): ChannelAttention(
                (fc1): Conv2d(384, 48, kernel_size=(1, 1), stride=(1, 1))
                (fc2): Conv2d(48, 384, kernel_size=(1, 1), stride=(1, 1))
              )
              (dconv5_5): Conv2d(384, 384, kernel_size=(5, 5), stride=(1, 1), padding=(2, 2), groups=384)
              (dconv1_7): Conv2d(384, 384, kernel_size=(1, 7), stride=(1, 1), padding=(0, 3), groups=384)
              (dconv7_1): Conv2d(384, 384, kernel_size=(7, 1), stride=(1, 1), padding=(3, 0), groups=384)
              (dconv1_11): Conv2d(384, 384, kernel_size=(1, 11), stride=(1, 1), padding=(0, 5), groups=384)
              (dconv11_1): Conv2d(384, 384, kernel_size=(11, 1), stride=(1, 1), padding=(5, 0), groups=384)
              (dconv1_21): Conv2d(384, 384, kernel_size=(1, 21), stride=(1, 1), padding=(0, 10), groups=384)
              (dconv21_1): Conv2d(384, 384, kernel_size=(21, 1), stride=(1, 1), padding=(10, 0), groups=384)
              (conv): Conv2d(384, 384, kernel_size=(1, 1), stride=(1, 1))
              (act): GELU(approximate='none')
            )
          )
          (2): Block(
            (dwconv): Conv2d(384, 384, kernel_size=(7, 7), stride=(1, 1), padding=(3, 3), groups=384)
            (bn): BatchNorm2d(384, eps=1e-05, momentum=0.1, affine=True, track_running_stats=True)
            (norm): LayerNorm()
            (drop_path): DropPath(drop_prob=0.080)
            (ffn_block): FFNBlock2(
              (conv1): Conv2d(384, 1536, kernel_size=(1, 1), stride=(1, 1))
              (conv2): Conv2d(1536, 384, kernel_size=(1, 1), stride=(1, 1))
              (dconv): Conv2d(1536, 1536, kernel_size=(3, 3), stride=(1, 1), padding=(1, 1), groups=1536)
              (act): GELU(approximate='none')
            )
            (repmlp_block): RepBlock(
              (ca): ChannelAttention(
                (fc1): Conv2d(384, 48, kernel_size=(1, 1), stride=(1, 1))
                (fc2): Conv2d(48, 384, kernel_size=(1, 1), stride=(1, 1))
              )
              (dconv5_5): Conv2d(384, 384, kernel_size=(5, 5), stride=(1, 1), padding=(2, 2), groups=384)
              (dconv1_7): Conv2d(384, 384, kernel_size=(1, 7), stride=(1, 1), padding=(0, 3), groups=384)
              (dconv7_1): Conv2d(384, 384, kernel_size=(7, 1), stride=(1, 1), padding=(3, 0), groups=384)
              (dconv1_11): Conv2d(384, 384, kernel_size=(1, 11), stride=(1, 1), padding=(0, 5), groups=384)
              (dconv11_1): Conv2d(384, 384, kernel_size=(11, 1), stride=(1, 1), padding=(5, 0), groups=384)
              (dconv1_21): Conv2d(384, 384, kernel_size=(1, 21), stride=(1, 1), padding=(0, 10), groups=384)
              (dconv21_1): Conv2d(384, 384, kernel_size=(21, 1), stride=(1, 1), padding=(10, 0), groups=384)
              (conv): Conv2d(384, 384, kernel_size=(1, 1), stride=(1, 1))
              (act): GELU(approximate='none')
            )
          )
          (3): Block(
            (dwconv): Conv2d(384, 384, kernel_size=(7, 7), stride=(1, 1), padding=(3, 3), groups=384)
            (bn): BatchNorm2d(384, eps=1e-05, momentum=0.1, affine=True, track_running_stats=True)
            (norm): LayerNorm()
            (drop_path): DropPath(drop_prob=0.090)
            (ffn_block): FFNBlock2(
              (conv1): Conv2d(384, 1536, kernel_size=(1, 1), stride=(1, 1))
              (conv2): Conv2d(1536, 384, kernel_size=(1, 1), stride=(1, 1))
              (dconv): Conv2d(1536, 1536, kernel_size=(3, 3), stride=(1, 1), padding=(1, 1), groups=1536)
              (act): GELU(approximate='none')
            )
            (repmlp_block): RepBlock(
              (ca): ChannelAttention(
                (fc1): Conv2d(384, 48, kernel_size=(1, 1), stride=(1, 1))
                (fc2): Conv2d(48, 384, kernel_size=(1, 1), stride=(1, 1))
              )
              (dconv5_5): Conv2d(384, 384, kernel_size=(5, 5), stride=(1, 1), padding=(2, 2), groups=384)
              (dconv1_7): Conv2d(384, 384, kernel_size=(1, 7), stride=(1, 1), padding=(0, 3), groups=384)
              (dconv7_1): Conv2d(384, 384, kernel_size=(7, 1), stride=(1, 1), padding=(3, 0), groups=384)
              (dconv1_11): Conv2d(384, 384, kernel_size=(1, 11), stride=(1, 1), padding=(0, 5), groups=384)
              (dconv11_1): Conv2d(384, 384, kernel_size=(11, 1), stride=(1, 1), padding=(5, 0), groups=384)
              (dconv1_21): Conv2d(384, 384, kernel_size=(1, 21), stride=(1, 1), padding=(0, 10), groups=384)
              (dconv21_1): Conv2d(384, 384, kernel_size=(21, 1), stride=(1, 1), padding=(10, 0), groups=384)
              (conv): Conv2d(384, 384, kernel_size=(1, 1), stride=(1, 1))
              (act): GELU(approximate='none')
            )
          )
          (4): Block(
            (dwconv): Conv2d(384, 384, kernel_size=(7, 7), stride=(1, 1), padding=(3, 3), groups=384)
            (bn): BatchNorm2d(384, eps=1e-05, momentum=0.1, affine=True, track_running_stats=True)
            (norm): LayerNorm()
            (drop_path): DropPath(drop_prob=0.100)
            (ffn_block): FFNBlock2(
              (conv1): Conv2d(384, 1536, kernel_size=(1, 1), stride=(1, 1))
              (conv2): Conv2d(1536, 384, kernel_size=(1, 1), stride=(1, 1))
              (dconv): Conv2d(1536, 1536, kernel_size=(3, 3), stride=(1, 1), padding=(1, 1), groups=1536)
              (act): GELU(approximate='none')
            )
            (repmlp_block): RepBlock(
              (ca): ChannelAttention(
                (fc1): Conv2d(384, 48, kernel_size=(1, 1), stride=(1, 1))
                (fc2): Conv2d(48, 384, kernel_size=(1, 1), stride=(1, 1))
              )
              (dconv5_5): Conv2d(384, 384, kernel_size=(5, 5), stride=(1, 1), padding=(2, 2), groups=384)
              (dconv1_7): Conv2d(384, 384, kernel_size=(1, 7), stride=(1, 1), padding=(0, 3), groups=384)
              (dconv7_1): Conv2d(384, 384, kernel_size=(7, 1), stride=(1, 1), padding=(3, 0), groups=384)
              (dconv1_11): Conv2d(384, 384, kernel_size=(1, 11), stride=(1, 1), padding=(0, 5), groups=384)
              (dconv11_1): Conv2d(384, 384, kernel_size=(11, 1), stride=(1, 1), padding=(5, 0), groups=384)
              (dconv1_21): Conv2d(384, 384, kernel_size=(1, 21), stride=(1, 1), padding=(0, 10), groups=384)
              (dconv21_1): Conv2d(384, 384, kernel_size=(21, 1), stride=(1, 1), padding=(10, 0), groups=384)
              (conv): Conv2d(384, 384, kernel_size=(1, 1), stride=(1, 1))
              (act): GELU(approximate='none')
            )
          )
          (5): Block(
            (dwconv): Conv2d(384, 384, kernel_size=(7, 7), stride=(1, 1), padding=(3, 3), groups=384)
            (bn): BatchNorm2d(384, eps=1e-05, momentum=0.1, affine=True, track_running_stats=True)
            (norm): LayerNorm()
            (drop_path): DropPath(drop_prob=0.110)
            (ffn_block): FFNBlock2(
              (conv1): Conv2d(384, 1536, kernel_size=(1, 1), stride=(1, 1))
              (conv2): Conv2d(1536, 384, kernel_size=(1, 1), stride=(1, 1))
              (dconv): Conv2d(1536, 1536, kernel_size=(3, 3), stride=(1, 1), padding=(1, 1), groups=1536)
              (act): GELU(approximate='none')
            )
            (repmlp_block): RepBlock(
              (ca): ChannelAttention(
                (fc1): Conv2d(384, 48, kernel_size=(1, 1), stride=(1, 1))
                (fc2): Conv2d(48, 384, kernel_size=(1, 1), stride=(1, 1))
              )
              (dconv5_5): Conv2d(384, 384, kernel_size=(5, 5), stride=(1, 1), padding=(2, 2), groups=384)
              (dconv1_7): Conv2d(384, 384, kernel_size=(1, 7), stride=(1, 1), padding=(0, 3), groups=384)
              (dconv7_1): Conv2d(384, 384, kernel_size=(7, 1), stride=(1, 1), padding=(3, 0), groups=384)
              (dconv1_11): Conv2d(384, 384, kernel_size=(1, 11), stride=(1, 1), padding=(0, 5), groups=384)
              (dconv11_1): Conv2d(384, 384, kernel_size=(11, 1), stride=(1, 1), padding=(5, 0), groups=384)
              (dconv1_21): Conv2d(384, 384, kernel_size=(1, 21), stride=(1, 1), padding=(0, 10), groups=384)
              (dconv21_1): Conv2d(384, 384, kernel_size=(21, 1), stride=(1, 1), padding=(10, 0), groups=384)
              (conv): Conv2d(384, 384, kernel_size=(1, 1), stride=(1, 1))
              (act): GELU(approximate='none')
            )
          )
          (6): Block(
            (dwconv): Conv2d(384, 384, kernel_size=(7, 7), stride=(1, 1), padding=(3, 3), groups=384)
            (bn): BatchNorm2d(384, eps=1e-05, momentum=0.1, affine=True, track_running_stats=True)
            (norm): LayerNorm()
            (drop_path): DropPath(drop_prob=0.120)
            (ffn_block): FFNBlock2(
              (conv1): Conv2d(384, 1536, kernel_size=(1, 1), stride=(1, 1))
              (conv2): Conv2d(1536, 384, kernel_size=(1, 1), stride=(1, 1))
              (dconv): Conv2d(1536, 1536, kernel_size=(3, 3), stride=(1, 1), padding=(1, 1), groups=1536)
              (act): GELU(approximate='none')
            )
            (repmlp_block): RepBlock(
              (ca): ChannelAttention(
                (fc1): Conv2d(384, 48, kernel_size=(1, 1), stride=(1, 1))
                (fc2): Conv2d(48, 384, kernel_size=(1, 1), stride=(1, 1))
              )
              (dconv5_5): Conv2d(384, 384, kernel_size=(5, 5), stride=(1, 1), padding=(2, 2), groups=384)
              (dconv1_7): Conv2d(384, 384, kernel_size=(1, 7), stride=(1, 1), padding=(0, 3), groups=384)
              (dconv7_1): Conv2d(384, 384, kernel_size=(7, 1), stride=(1, 1), padding=(3, 0), groups=384)
              (dconv1_11): Conv2d(384, 384, kernel_size=(1, 11), stride=(1, 1), padding=(0, 5), groups=384)
              (dconv11_1): Conv2d(384, 384, kernel_size=(11, 1), stride=(1, 1), padding=(5, 0), groups=384)
              (dconv1_21): Conv2d(384, 384, kernel_size=(1, 21), stride=(1, 1), padding=(0, 10), groups=384)
              (dconv21_1): Conv2d(384, 384, kernel_size=(21, 1), stride=(1, 1), padding=(10, 0), groups=384)
              (conv): Conv2d(384, 384, kernel_size=(1, 1), stride=(1, 1))
              (act): GELU(approximate='none')
            )
          )
          (7): Block(
            (dwconv): Conv2d(384, 384, kernel_size=(7, 7), stride=(1, 1), padding=(3, 3), groups=384)
            (bn): BatchNorm2d(384, eps=1e-05, momentum=0.1, affine=True, track_running_stats=True)
            (norm): LayerNorm()
            (drop_path): DropPath(drop_prob=0.130)
            (ffn_block): FFNBlock2(
              (conv1): Conv2d(384, 1536, kernel_size=(1, 1), stride=(1, 1))
              (conv2): Conv2d(1536, 384, kernel_size=(1, 1), stride=(1, 1))
              (dconv): Conv2d(1536, 1536, kernel_size=(3, 3), stride=(1, 1), padding=(1, 1), groups=1536)
              (act): GELU(approximate='none')
            )
            (repmlp_block): RepBlock(
              (ca): ChannelAttention(
                (fc1): Conv2d(384, 48, kernel_size=(1, 1), stride=(1, 1))
                (fc2): Conv2d(48, 384, kernel_size=(1, 1), stride=(1, 1))
              )
              (dconv5_5): Conv2d(384, 384, kernel_size=(5, 5), stride=(1, 1), padding=(2, 2), groups=384)
              (dconv1_7): Conv2d(384, 384, kernel_size=(1, 7), stride=(1, 1), padding=(0, 3), groups=384)
              (dconv7_1): Conv2d(384, 384, kernel_size=(7, 1), stride=(1, 1), padding=(3, 0), groups=384)
              (dconv1_11): Conv2d(384, 384, kernel_size=(1, 11), stride=(1, 1), padding=(0, 5), groups=384)
              (dconv11_1): Conv2d(384, 384, kernel_size=(11, 1), stride=(1, 1), padding=(5, 0), groups=384)
              (dconv1_21): Conv2d(384, 384, kernel_size=(1, 21), stride=(1, 1), padding=(0, 10), groups=384)
              (dconv21_1): Conv2d(384, 384, kernel_size=(21, 1), stride=(1, 1), padding=(10, 0), groups=384)
              (conv): Conv2d(384, 384, kernel_size=(1, 1), stride=(1, 1))
              (act): GELU(approximate='none')
            )
          )
          (8): Block(
            (dwconv): Conv2d(384, 384, kernel_size=(7, 7), stride=(1, 1), padding=(3, 3), groups=384)
            (bn): BatchNorm2d(384, eps=1e-05, momentum=0.1, affine=True, track_running_stats=True)
            (norm): LayerNorm()
            (drop_path): DropPath(drop_prob=0.140)
            (ffn_block): FFNBlock2(
              (conv1): Conv2d(384, 1536, kernel_size=(1, 1), stride=(1, 1))
              (conv2): Conv2d(1536, 384, kernel_size=(1, 1), stride=(1, 1))
              (dconv): Conv2d(1536, 1536, kernel_size=(3, 3), stride=(1, 1), padding=(1, 1), groups=1536)
              (act): GELU(approximate='none')
            )
            (repmlp_block): RepBlock(
              (ca): ChannelAttention(
                (fc1): Conv2d(384, 48, kernel_size=(1, 1), stride=(1, 1))
                (fc2): Conv2d(48, 384, kernel_size=(1, 1), stride=(1, 1))
              )
              (dconv5_5): Conv2d(384, 384, kernel_size=(5, 5), stride=(1, 1), padding=(2, 2), groups=384)
              (dconv1_7): Conv2d(384, 384, kernel_size=(1, 7), stride=(1, 1), padding=(0, 3), groups=384)
              (dconv7_1): Conv2d(384, 384, kernel_size=(7, 1), stride=(1, 1), padding=(3, 0), groups=384)
              (dconv1_11): Conv2d(384, 384, kernel_size=(1, 11), stride=(1, 1), padding=(0, 5), groups=384)
              (dconv11_1): Conv2d(384, 384, kernel_size=(11, 1), stride=(1, 1), padding=(5, 0), groups=384)
              (dconv1_21): Conv2d(384, 384, kernel_size=(1, 21), stride=(1, 1), padding=(0, 10), groups=384)
              (dconv21_1): Conv2d(384, 384, kernel_size=(21, 1), stride=(1, 1), padding=(10, 0), groups=384)
              (conv): Conv2d(384, 384, kernel_size=(1, 1), stride=(1, 1))
              (act): GELU(approximate='none')
            )
          )
          (9): Block(
            (dwconv): Conv2d(384, 384, kernel_size=(7, 7), stride=(1, 1), padding=(3, 3), groups=384)
            (bn): BatchNorm2d(384, eps=1e-05, momentum=0.1, affine=True, track_running_stats=True)
            (norm): LayerNorm()
            (drop_path): DropPath(drop_prob=0.150)
            (ffn_block): FFNBlock2(
              (conv1): Conv2d(384, 1536, kernel_size=(1, 1), stride=(1, 1))
              (conv2): Conv2d(1536, 384, kernel_size=(1, 1), stride=(1, 1))
              (dconv): Conv2d(1536, 1536, kernel_size=(3, 3), stride=(1, 1), padding=(1, 1), groups=1536)
              (act): GELU(approximate='none')
            )
            (repmlp_block): RepBlock(
              (ca): ChannelAttention(
                (fc1): Conv2d(384, 48, kernel_size=(1, 1), stride=(1, 1))
                (fc2): Conv2d(48, 384, kernel_size=(1, 1), stride=(1, 1))
              )
              (dconv5_5): Conv2d(384, 384, kernel_size=(5, 5), stride=(1, 1), padding=(2, 2), groups=384)
              (dconv1_7): Conv2d(384, 384, kernel_size=(1, 7), stride=(1, 1), padding=(0, 3), groups=384)
              (dconv7_1): Conv2d(384, 384, kernel_size=(7, 1), stride=(1, 1), padding=(3, 0), groups=384)
              (dconv1_11): Conv2d(384, 384, kernel_size=(1, 11), stride=(1, 1), padding=(0, 5), groups=384)
              (dconv11_1): Conv2d(384, 384, kernel_size=(11, 1), stride=(1, 1), padding=(5, 0), groups=384)
              (dconv1_21): Conv2d(384, 384, kernel_size=(1, 21), stride=(1, 1), padding=(0, 10), groups=384)
              (dconv21_1): Conv2d(384, 384, kernel_size=(21, 1), stride=(1, 1), padding=(10, 0), groups=384)
              (conv): Conv2d(384, 384, kernel_size=(1, 1), stride=(1, 1))
              (act): GELU(approximate='none')
            )
          )
          (10): Block(
            (dwconv): Conv2d(384, 384, kernel_size=(7, 7), stride=(1, 1), padding=(3, 3), groups=384)
            (bn): BatchNorm2d(384, eps=1e-05, momentum=0.1, affine=True, track_running_stats=True)
            (norm): LayerNorm()
            (drop_path): DropPath(drop_prob=0.160)
            (ffn_block): FFNBlock2(
              (conv1): Conv2d(384, 1536, kernel_size=(1, 1), stride=(1, 1))
              (conv2): Conv2d(1536, 384, kernel_size=(1, 1), stride=(1, 1))
              (dconv): Conv2d(1536, 1536, kernel_size=(3, 3), stride=(1, 1), padding=(1, 1), groups=1536)
              (act): GELU(approximate='none')
            )
            (repmlp_block): RepBlock(
              (ca): ChannelAttention(
                (fc1): Conv2d(384, 48, kernel_size=(1, 1), stride=(1, 1))
                (fc2): Conv2d(48, 384, kernel_size=(1, 1), stride=(1, 1))
              )
              (dconv5_5): Conv2d(384, 384, kernel_size=(5, 5), stride=(1, 1), padding=(2, 2), groups=384)
              (dconv1_7): Conv2d(384, 384, kernel_size=(1, 7), stride=(1, 1), padding=(0, 3), groups=384)
              (dconv7_1): Conv2d(384, 384, kernel_size=(7, 1), stride=(1, 1), padding=(3, 0), groups=384)
              (dconv1_11): Conv2d(384, 384, kernel_size=(1, 11), stride=(1, 1), padding=(0, 5), groups=384)
              (dconv11_1): Conv2d(384, 384, kernel_size=(11, 1), stride=(1, 1), padding=(5, 0), groups=384)
              (dconv1_21): Conv2d(384, 384, kernel_size=(1, 21), stride=(1, 1), padding=(0, 10), groups=384)
              (dconv21_1): Conv2d(384, 384, kernel_size=(21, 1), stride=(1, 1), padding=(10, 0), groups=384)
              (conv): Conv2d(384, 384, kernel_size=(1, 1), stride=(1, 1))
              (act): GELU(approximate='none')
            )
          )
          (11): Block(
            (dwconv): Conv2d(384, 384, kernel_size=(7, 7), stride=(1, 1), padding=(3, 3), groups=384)
            (bn): BatchNorm2d(384, eps=1e-05, momentum=0.1, affine=True, track_running_stats=True)
            (norm): LayerNorm()
            (drop_path): DropPath(drop_prob=0.170)
            (ffn_block): FFNBlock2(
              (conv1): Conv2d(384, 1536, kernel_size=(1, 1), stride=(1, 1))
              (conv2): Conv2d(1536, 384, kernel_size=(1, 1), stride=(1, 1))
              (dconv): Conv2d(1536, 1536, kernel_size=(3, 3), stride=(1, 1), padding=(1, 1), groups=1536)
              (act): GELU(approximate='none')
            )
            (repmlp_block): RepBlock(
              (ca): ChannelAttention(
                (fc1): Conv2d(384, 48, kernel_size=(1, 1), stride=(1, 1))
                (fc2): Conv2d(48, 384, kernel_size=(1, 1), stride=(1, 1))
              )
              (dconv5_5): Conv2d(384, 384, kernel_size=(5, 5), stride=(1, 1), padding=(2, 2), groups=384)
              (dconv1_7): Conv2d(384, 384, kernel_size=(1, 7), stride=(1, 1), padding=(0, 3), groups=384)
              (dconv7_1): Conv2d(384, 384, kernel_size=(7, 1), stride=(1, 1), padding=(3, 0), groups=384)
              (dconv1_11): Conv2d(384, 384, kernel_size=(1, 11), stride=(1, 1), padding=(0, 5), groups=384)
              (dconv11_1): Conv2d(384, 384, kernel_size=(11, 1), stride=(1, 1), padding=(5, 0), groups=384)
              (dconv1_21): Conv2d(384, 384, kernel_size=(1, 21), stride=(1, 1), padding=(0, 10), groups=384)
              (dconv21_1): Conv2d(384, 384, kernel_size=(21, 1), stride=(1, 1), padding=(10, 0), groups=384)
              (conv): Conv2d(384, 384, kernel_size=(1, 1), stride=(1, 1))
              (act): GELU(approximate='none')
            )
          )
        )
        (downsample): PatchMerging(
          (reduction): Conv2d(384, 768, kernel_size=(3, 3), stride=(2, 2), padding=(1, 1))
          (norm): LayerNorm((384,), eps=1e-05, elementwise_affine=True)
        )
      )
      (3): BasicLayer(
        (blocks): ModuleList(
          (0): Block(
            (dwconv): Conv2d(768, 768, kernel_size=(7, 7), stride=(1, 1), padding=(3, 3), groups=768)
            (bn): BatchNorm2d(768, eps=1e-05, momentum=0.1, affine=True, track_running_stats=True)
            (norm): LayerNorm()
            (drop_path): DropPath(drop_prob=0.180)
            (ffn_block): FFNBlock2(
              (conv1): Conv2d(768, 3072, kernel_size=(1, 1), stride=(1, 1))
              (conv2): Conv2d(3072, 768, kernel_size=(1, 1), stride=(1, 1))
              (dconv): Conv2d(3072, 3072, kernel_size=(3, 3), stride=(1, 1), padding=(1, 1), groups=3072)
              (act): GELU(approximate='none')
            )
            (repmlp_block): RepBlock(
              (ca): ChannelAttention(
                (fc1): Conv2d(768, 96, kernel_size=(1, 1), stride=(1, 1))
                (fc2): Conv2d(96, 768, kernel_size=(1, 1), stride=(1, 1))
              )
              (dconv5_5): Conv2d(768, 768, kernel_size=(5, 5), stride=(1, 1), padding=(2, 2), groups=768)
              (dconv1_7): Conv2d(768, 768, kernel_size=(1, 7), stride=(1, 1), padding=(0, 3), groups=768)
              (dconv7_1): Conv2d(768, 768, kernel_size=(7, 1), stride=(1, 1), padding=(3, 0), groups=768)
              (dconv1_11): Conv2d(768, 768, kernel_size=(1, 11), stride=(1, 1), padding=(0, 5), groups=768)
              (dconv11_1): Conv2d(768, 768, kernel_size=(11, 1), stride=(1, 1), padding=(5, 0), groups=768)
              (dconv1_21): Conv2d(768, 768, kernel_size=(1, 21), stride=(1, 1), padding=(0, 10), groups=768)
              (dconv21_1): Conv2d(768, 768, kernel_size=(21, 1), stride=(1, 1), padding=(10, 0), groups=768)
              (conv): Conv2d(768, 768, kernel_size=(1, 1), stride=(1, 1))
              (act): GELU(approximate='none')
            )
          )
          (1): Block(
            (dwconv): Conv2d(768, 768, kernel_size=(7, 7), stride=(1, 1), padding=(3, 3), groups=768)
            (bn): BatchNorm2d(768, eps=1e-05, momentum=0.1, affine=True, track_running_stats=True)
            (norm): LayerNorm()
            (drop_path): DropPath(drop_prob=0.190)
            (ffn_block): FFNBlock2(
              (conv1): Conv2d(768, 3072, kernel_size=(1, 1), stride=(1, 1))
              (conv2): Conv2d(3072, 768, kernel_size=(1, 1), stride=(1, 1))
              (dconv): Conv2d(3072, 3072, kernel_size=(3, 3), stride=(1, 1), padding=(1, 1), groups=3072)
              (act): GELU(approximate='none')
            )
            (repmlp_block): RepBlock(
              (ca): ChannelAttention(
                (fc1): Conv2d(768, 96, kernel_size=(1, 1), stride=(1, 1))
                (fc2): Conv2d(96, 768, kernel_size=(1, 1), stride=(1, 1))
              )
              (dconv5_5): Conv2d(768, 768, kernel_size=(5, 5), stride=(1, 1), padding=(2, 2), groups=768)
              (dconv1_7): Conv2d(768, 768, kernel_size=(1, 7), stride=(1, 1), padding=(0, 3), groups=768)
              (dconv7_1): Conv2d(768, 768, kernel_size=(7, 1), stride=(1, 1), padding=(3, 0), groups=768)
              (dconv1_11): Conv2d(768, 768, kernel_size=(1, 11), stride=(1, 1), padding=(0, 5), groups=768)
              (dconv11_1): Conv2d(768, 768, kernel_size=(11, 1), stride=(1, 1), padding=(5, 0), groups=768)
              (dconv1_21): Conv2d(768, 768, kernel_size=(1, 21), stride=(1, 1), padding=(0, 10), groups=768)
              (dconv21_1): Conv2d(768, 768, kernel_size=(21, 1), stride=(1, 1), padding=(10, 0), groups=768)
              (conv): Conv2d(768, 768, kernel_size=(1, 1), stride=(1, 1))
              (act): GELU(approximate='none')
            )
          )
          (2): Block(
            (dwconv): Conv2d(768, 768, kernel_size=(7, 7), stride=(1, 1), padding=(3, 3), groups=768)
            (bn): BatchNorm2d(768, eps=1e-05, momentum=0.1, affine=True, track_running_stats=True)
            (norm): LayerNorm()
            (drop_path): DropPath(drop_prob=0.200)
            (ffn_block): FFNBlock2(
              (conv1): Conv2d(768, 3072, kernel_size=(1, 1), stride=(1, 1))
              (conv2): Conv2d(3072, 768, kernel_size=(1, 1), stride=(1, 1))
              (dconv): Conv2d(3072, 3072, kernel_size=(3, 3), stride=(1, 1), padding=(1, 1), groups=3072)
              (act): GELU(approximate='none')
            )
            (repmlp_block): RepBlock(
              (ca): ChannelAttention(
                (fc1): Conv2d(768, 96, kernel_size=(1, 1), stride=(1, 1))
                (fc2): Conv2d(96, 768, kernel_size=(1, 1), stride=(1, 1))
              )
              (dconv5_5): Conv2d(768, 768, kernel_size=(5, 5), stride=(1, 1), padding=(2, 2), groups=768)
              (dconv1_7): Conv2d(768, 768, kernel_size=(1, 7), stride=(1, 1), padding=(0, 3), groups=768)
              (dconv7_1): Conv2d(768, 768, kernel_size=(7, 1), stride=(1, 1), padding=(3, 0), groups=768)
              (dconv1_11): Conv2d(768, 768, kernel_size=(1, 11), stride=(1, 1), padding=(0, 5), groups=768)
              (dconv11_1): Conv2d(768, 768, kernel_size=(11, 1), stride=(1, 1), padding=(5, 0), groups=768)
              (dconv1_21): Conv2d(768, 768, kernel_size=(1, 21), stride=(1, 1), padding=(0, 10), groups=768)
              (dconv21_1): Conv2d(768, 768, kernel_size=(21, 1), stride=(1, 1), padding=(10, 0), groups=768)
              (conv): Conv2d(768, 768, kernel_size=(1, 1), stride=(1, 1))
              (act): GELU(approximate='none')
            )
          )
        )
      )
    )
    (norm0): LayerNorm((96,), eps=1e-05, elementwise_affine=True)
    (norm1): LayerNorm((192,), eps=1e-05, elementwise_affine=True)
    (norm2): LayerNorm((384,), eps=1e-05, elementwise_affine=True)
    (norm3): LayerNorm((768,), eps=1e-05, elementwise_affine=True)
  )
  (decoder): decoder(
    (pos_drop): Dropout(p=0.0, inplace=False)
    (layers): ModuleList(
      (0): BasicLayer_up(
        (blocks): ModuleList(
          (0): Block_up(
            (conv): Conv2d(96, 96, kernel_size=(3, 3), stride=(1, 1), padding=(1, 1))
            (bn): BatchNorm2d(96, eps=1e-05, momentum=0.1, affine=True, track_running_stats=True)
            (relu): ReLU()
          )
        )
        (Upsample): Patch_Expanding(
          (norm): LayerNorm((192,), eps=1e-05, elementwise_affine=True)
          (up): ConvTranspose2d(192, 96, kernel_size=(2, 2), stride=(2, 2))
        )
      )
      (1): BasicLayer_up(
        (blocks): ModuleList(
          (0): Block_up(
            (conv): Conv2d(192, 192, kernel_size=(3, 3), stride=(1, 1), padding=(1, 1))
            (bn): BatchNorm2d(192, eps=1e-05, momentum=0.1, affine=True, track_running_stats=True)
            (relu): ReLU()
          )
          (1): Block_up(
            (conv): Conv2d(192, 192, kernel_size=(3, 3), stride=(1, 1), padding=(1, 1))
            (bn): BatchNorm2d(192, eps=1e-05, momentum=0.1, affine=True, track_running_stats=True)
            (relu): ReLU()
          )
        )
        (Upsample): Patch_Expanding(
          (norm): LayerNorm((384,), eps=1e-05, elementwise_affine=True)
          (up): ConvTranspose2d(384, 192, kernel_size=(2, 2), stride=(2, 2))
        )
      )
      (2): BasicLayer_up(
        (blocks): ModuleList(
          (0): Block_up(
            (conv): Conv2d(384, 384, kernel_size=(3, 3), stride=(1, 1), padding=(1, 1))
            (bn): BatchNorm2d(384, eps=1e-05, momentum=0.1, affine=True, track_running_stats=True)
            (relu): ReLU()
          )
          (1): Block_up(
            (conv): Conv2d(384, 384, kernel_size=(3, 3), stride=(1, 1), padding=(1, 1))
            (bn): BatchNorm2d(384, eps=1e-05, momentum=0.1, affine=True, track_running_stats=True)
            (relu): ReLU()
          )
        )
        (Upsample): Patch_Expanding(
          (norm): LayerNorm((768,), eps=1e-05, elementwise_affine=True)
          (up): ConvTranspose2d(768, 384, kernel_size=(2, 2), stride=(2, 2))
        )
      )
    )
  )
  (final): ModuleList(
    (0): final_patch_expanding(
      (project_block): ModuleList(
        (0): project_up(
          (conv1): ConvTranspose2d(96, 48, kernel_size=(2, 2), stride=(2, 2))
          (conv2): Conv2d(48, 48, kernel_size=(3, 3), stride=(1, 1), padding=(1, 1))
          (activate): GELU(approximate='none')
          (norm1): LayerNorm((48,), eps=1e-05, elementwise_affine=True)
          (norm2): LayerNorm((48,), eps=1e-05, elementwise_affine=True)
        )
      )
      (up_final): ConvTranspose2d(48, 2, kernel_size=(4, 4), stride=(4, 4))
    )
    (1): final_patch_expanding(
      (project_block): ModuleList(
        (0): project_up(
          (conv1): ConvTranspose2d(192, 96, kernel_size=(2, 2), stride=(2, 2))
          (conv2): Conv2d(96, 96, kernel_size=(3, 3), stride=(1, 1), padding=(1, 1))
          (activate): GELU(approximate='none')
          (norm1): LayerNorm((96,), eps=1e-05, elementwise_affine=True)
          (norm2): LayerNorm((96,), eps=1e-05, elementwise_affine=True)
        )
      )
      (up_final): ConvTranspose2d(96, 2, kernel_size=(4, 4), stride=(4, 4))
    )
    (2): final_patch_expanding(
      (project_block): ModuleList(
        (0): project_up(
          (conv1): ConvTranspose2d(384, 192, kernel_size=(2, 2), stride=(2, 2))
          (conv2): Conv2d(192, 192, kernel_size=(3, 3), stride=(1, 1), padding=(1, 1))
          (activate): GELU(approximate='none')
          (norm1): LayerNorm((192,), eps=1e-05, elementwise_affine=True)
          (norm2): LayerNorm((192,), eps=1e-05, elementwise_affine=True)
        )
      )
      (up_final): ConvTranspose2d(192, 2, kernel_size=(4, 4), stride=(4, 4))
    )
  )
) 
2023-02-06 20:05:31.853126: 
 
2023-02-06 20:05:31.860434: 
epoch:  0 
2023-02-06 20:06:56.577704: train loss : -0.4515 
2023-02-06 20:06:58.100961: Average global foreground Dice: [0.7237510859391586] 
2023-02-06 20:06:58.106448: Average foreground Dice: 0.7237510859391586 
2023-02-06 20:06:58.113009: (interpret this as an estimate for the Dice of the different classes. This is not exact.) 
…
